…
ce=None\n",
      "Downloading https://ultralytics.com/assets/Arial.ttf to '/root/.config/Ultralytics/Arial.ttf'...\n"
     ]
    },
    {
     "name": "stderr",
     "output_type": "stream",
     "text": [
      "100%|██████████| 755k/755k [00:00<00:00, 18.1MB/s]\n"
     ]
    },
    {
     "name": "stdout",
     "output_type": "stream",
     "text": [
      "Overriding model.yaml nc=80 with nc=21\n",
      "\n",
      "                   from  n    params  module                                       arguments                     \n",
      "  0                  -1  1       464  ultralytics.nn.modules.conv.Conv             [3, 16, 3, 2]                 \n",
      "  1                  -1  1      4672  ultralytics.nn.modules.conv.Conv             [16, 32, 3, 2]                \n",
      "  2                  -1  1      6640  ultralytics.nn.modules.block.C3k2            [32, 64, 1, False, 0.25]      \n",
      "  3                  -1  1     36992  ultralytics.nn.modules.conv.Conv             [64, 64, 3, 2]                \n",
      "  4                  -1  1     26080  ultralytics.nn.modules.block.C3k2            [64, 128, 1, False, 0.25]     \n",
      "  5                  -1  1    147712  ultralytics.nn.modules.conv.Conv             [128, 128, 3, 2]              \n",
      "  6                  -1  1     87040  ultralytics.nn.modules.block.C3k2            [128, 128, 1, True]           \n",
      "  7                  -1  1    295424  ultralytics.nn.modules.conv.Conv             [128, 256, 3, 2]              \n",
      "  8                  -1  1    346112  ultralytics.nn.modules.block.C3k2            [256, 256, 1, True]           \n",
      "  9                  -1  1    164608  ultralytics.nn.modules.block.SPPF            [256, 256, 5]                 \n",
      " 10                  -1  1    249728  ultralytics.nn.modules.block.C2PSA           [256, 256, 1]                 \n",
      " 11                  -1  1         0  torch.nn.modules.upsampling.Upsample         [None, 2, 'nearest']          \n",
      " 12             [-1, 6]  1         0  ultralytics.nn.modules.conv.Concat           [1]                           \n",
      " 13                  -1  1    111296  ultralytics.nn.modules.block.C3k2            [384, 128, 1, False]          \n",
      " 14                  -1  1         0  torch.nn.modules.upsampling.Upsample         [None, 2, 'nearest']          \n",
      " 15             [-1, 4]  1         0  ultralytics.nn.modules.conv.Concat           [1]                           \n",
      " 16                  -1  1     32096  ultralytics.nn.modules.block.C3k2            [256, 64, 1, False]           \n",
      " 17                  -1  1     36992  ultralytics.nn.modules.conv.Conv             [64, 64, 3, 2]                \n",
      " 18            [-1, 13]  1         0  ultralytics.nn.modules.conv.Concat           [1]                           \n",
      " 19                  -1  1     86720  ultralytics.nn.modules.block.C3k2            [192, 128, 1, False]          \n",
      " 20                  -1  1    147712  ultralytics.nn.modules.conv.Conv             [128, 128, 3, 2]              \n",
      " 21            [-1, 10]  1         0  ultralytics.nn.modules.conv.Concat           [1]                           \n",
      " 22                  -1  1    378880  ultralytics.nn.modules.block.C3k2            [384, 256, 1, True]           \n",
      " 23        [16, 19, 22]  1    434767  ultralytics.nn.modules.head.Detect           [21, [64, 128, 256]]          \n",
      "YOLO11n summary: 181 layers, 2,593,935 parameters, 2,593,919 gradients, 6.5 GFLOPs\n",
      "\n",
      "\u001b[34m\u001b[1mDDP:\u001b[0m debug command /usr/bin/python3 -m torch.distributed.run --nproc_per_node 2 --master_port 57239 /root/.config/Ultralytics/DDP/_temp_k5wnoe3i138209395189008.py\n",
      "Ultralytics 8.3.160 🚀 Python-3.11.11 torch-2.6.0+cu124 CUDA:0 (Tesla T4, 15095MiB)\n",
…
